ddpg_goal_nav_actor.pt (torch, 274597 bytes, 6 tensors)

net.0.weight f4 [256, 5]
-45.632088 44.896225 -41.67365 -44.98813 45.688732 -44.756615 -45.62455 38.448513
-45.15923 -45.7469 45.191086 -44.656 9.21724 45.610806 -45.61784 -45.4468
45.91578 19.092485 -46.16295 45.542286 -45.321083 -45.6178 38.159164 -45.926434
-45.486603 45.48378 -45.897675 42.515877 44.89754 -44.741573 44.43869 -44.970963
2.357722 45.553947 -44.91009 -45.34975 -45.4977 38.41809 -45.774548 -45.58968
-45.644627 45.31223 -41.63054 -45.30625 45.54731 -45.727074 -44.988747 36.27205
-45.129204 -44.01835 44.72967 -45.073273 41.176968 45.484634 -44.89108 -44.87742
45.409786 25.01163 -46.014965 45.997257 44.52761 45.056763 41.756035 45.432064
45.274437 44.89592 45.545868 41.396362 45.36057 45.37775 -44.848194 -45.78084
35.25881 -44.81736 -45.2437 -44.676853 -45.925896 -37.716766 -46.133472 -44.905327
-45.413906 45.552174 13.178314 -45.933 45.87126 -45.37805 -45.200462 38.397
-46.058815 -45.74907 44.503696 -44.85637 41.23449 45.307365 -44.64877 45.457256
-44.860676 7.4863243 45.45569 -45.623592 -45.761234 45.562412 24.697012 -45.073776
45.26496 44.56115 -44.820183 42.471783 45.09033 -44.61441 44.60099 -44.76512
42.703175 45.331856 -44.956005 45.46228 44.946903 -37.54272 45.181004 45.646244
45.124397 -44.71835 6.792664 45.57779 -45.563274 -45.13686 45.920578 16.785322
-45.52247 45.80942 -45.235138 45.383106 -40.63081 -45.301323 45.869236 45.003437
-45.25926 9.774068 45.4674 -44.899532 -44.94954 -45.230606 38.10174 -46.000275
-45.456272 -45.502476 44.573826 -41.363846 -45.32039 45.824097 45.824863 -45.36599
11.250971 45.18032 -44.964573 45.415787 -45.349224 7.528687 45.218327 -44.64491
-45.77331 45.299984 21.4639 -45.06764 45.88304 -45.370663 45.44164 24.58372
-45.39161 45.796913 45.59569 45.537613 -38.015587 45.51468 45.69532 45.122272
-45.436775 20.44694 45.508568 -44.961918 45.921757 -45.348747 42.4916 44.8371
-44.769695 -45.530952 45.041245 -41.035877 -44.972313 45.242702 -44.53948 -45.605743
39.496197 -45.69074 -45.127144 -45.89457 45.187706 -19.105228 -45.363598 46.10093
-45.634212 -45.52876 -33.72561 -44.836784 -44.41594 -45.076744 -44.834347 -40.056408
-45.761436 -45.470505 -44.576473 -45.236668 39.615326 -45.806107 -45.240223 45.720158
-44.900333 43.802017 45.18402 -44.634113 -44.890793 -45.510532 39.14209 -45.721718
-45.42588 -45.110943 -45.688774 -34.86771 -45.34781 -45.278416 -45.54049 -45.470776
-39.99745 -45.570656 -45.282402 45.2379 -45.317352 7.6072197 45.439266 -44.30655
-45.13603 -45.09439 -33.45785 -45.681686 -45.55524 -45.678665 44.88794 16.70056
-45.192688 45.82451 -45.112373 45.78024 -39.977684 -45.959095 45.436237 45.663307
00000000: 4287 36c2 bc95 3342 d1b1 26c2 d8f3 33c2
00000010: 43c1 3642 c606 33c2 8a7f 36c2 47cb 1942
00000020: 0da3 34c2 d3fc 36c2 acc3 3442 be9f 32c2
00000030: d179 1341 7771 3642 ab78 36c2 86c9 35c2
00000040: c2a9 3742 69bd 9841 dca6 38c2 4d2b 3642
00000050: ca48 35c2 a178 36c2 fca2 1842 abb4 37c2
00000060: 48f2 35c2 64ef 3542 3897 37c2 4210 2a42
00000070: 1597 3342 5ff7 32c2 38c1 3142 44e2 33c2
00000080: ebe4 1640 3e37 3642 efa3 33c2 2566 35c2
00000090: a5fd 35c2 20ac 1942 2319 37c2 d55b 36c2
000000a0: 1994 36c2 b93f 3542 ac85 26c2 9a39 35c2
000000b0: 7230 3642 86e8 36c2 7af4 33c2 9416 1142
000000c0: 4e84 34c2 ca12 30c2 2feb 3242 084b 34c2
000000d0: 37b5 2442 44f0 3542 7790 33c2 7a82 33c2
000000e0: 9fa3 3542 d117 c841 530f 38c2 31fd 3742
000000f0: 461c 3242 203a 3442 2e06 2742 6fba 3542
00000100: 0619 3542 6c95 3342 f82e 3642 e095 2542
00000110: 3971 3542 d182 3542 8d64 33c2 951f 37c2
00000120: 0509 0d42 fa44 33c2 8cf9 34c2 19b5 32c2
00000130: 1eb4 37c2 f8dd 16c2 ad88 38c2 0e9f 33c2
00000140: d7a7 35c2 6d35 3642 60da 5241 64bb 37c2
00000150: 2c7c 3742 2083 35c2 46cd 34c2 8796 1942
00000160: 3a3c 38c2 0cff 36c2 c903 3242 ec6c 33c2
00000170: 1ef0 2442 be3a 3542 5798 32c2 3bd4 3542
00000180: 5571 33c2 f88f ef40 a0d2 3542 8f7e 36c2
00000190: 810b 37c2 e93f 3642 7b93 c541 8c4b 34c2
000001a0: 520f 3542 9e3e 3242 de47 33c2 1be3 2942
000001b0: 7f5c 3442 2875 32c2 6a67 3242 7c0f 33c2
000001c0: 0dd0 2a42 d253 3542 f3d2 33c2 60d9 3542
000001d0: a1c9 3342 bf2b 16c2 59b9 3442 c195 3642
000001e0: 627f 3442 97df 32c2 815d d940 a84f 3642
000001f0: cb40 36c2 258c 34c2 acae 3742 5748 8641
00000200: 0217 36c2 d93c 3742 c8f0 34c2 4d88 3542
00000210: f385 22c2 8e34 35c2 197a 3742 8503 3442
00000220: 7b09 35c2 9562 1c41 9ede 3542 1f99 33c2
00000230: 54cc 33c2 24ec 34c2 2f68 1842 4800 38c2
00000240: 39d3 35c2 8902 36c2 994b 3242 9474 25c2
00000250: 1448 35c2 e04b 3742 a94c 3742 c676 35c2
00000260: fa03 3441 a6b8 3442 b9db 33c2 c4a9 3542
00000270: 9b65 35c2 01eb f040 91df 3442 6394 32c2
00000280: df17 37c2 2f33 3542 11b6 ab41 4345 34c2
00000290: 3c88 3742 8f7b 35c2 3dc4 3542 75ab c441
000002a0: 0291 35c2 0a30 3742 fd61 3642 8426 3642
000002b0: f60f 18c2 080f 3642 02c8 3642 357d 3442
000002c0: 42bf 35c2 5593 a341 c608 3642 01d9 33c2
000002d0: e1af 3742 1e65 35c2 66f7 2942 3159 3342
000002e0: 2b14 33c2 b21f 36c2 3c2a 3442 bd24 24c2
000002f0: a6e3 33c2 87f8 3442 6d28 32c2 486c 36c2
00000300: 1bfc 1d42 51c3 36c2 3282 34c2 0a94 37c2
00000310: 36c0 3442 82d7 98c1 5374 35c2 5a67 3842
00000320: 6f89 36c2 731d 36c2 06e7 06c2 de58 33c2
00000330: eca9 31c2 964e 34c2 5f56 33c2 c339 20c2
00000340: b60b 37c2 cce1 35c2 4f4e 32c2 59f2 34c2
00000350: 1876 1e42 7439 37c2 fdf5 34c2 71e1 3642
00000360: f199 33c2 4435 2f42 70bc 3442 5589 32c2
00000370: 2c90 33c2 c90a 36c2 8091 1c42 0ae3 36c2
00000380: 1ab4 35c2 9b71 34c2 4ec1 36c2 8978 0bc2
00000390: 2864 35c2 191d 35c2 7629 36c2 13e2 35c2
000003a0: 64fd 1fc2 5a48 36c2 2e21 35c2 9cf3 3442
000003b0: f844 35c2 586e f340 cfc1 3542 e839 31c2
000003c0: 4b8b 34c2 a860 34c2 d7d4 05c2 0cba 36c2
000003d0: 9138 36c2 f4b6 36c2 408d 3342 bf9a 8541
000003e0: 50c5 34c2 4c4c 3742 1273 34c2 f71e 3742
000003f0: 26e9 1fc2 1dd6 37c2 b5be 3542 3aa7 3642

net.0.bias f4 [256]
45.27688 45.477657 45.82949 45.97499 45.871468 45.653008 45.399918 45.448475
45.729256 46.287968 45.845066 45.905865 45.171627 45.8919 45.736313 45.92955
45.721592 46.087193 45.383083 45.42706 45.7912 45.092525 44.860596 45.811584
45.664925 46.080475 46.147923 45.418068 46.12142 45.41383 45.63026 45.350018
46.27907 45.996468 45.722717 45.721092 45.519337 45.315334 45.556194 46.07351
45.98713 45.884243 45.747555 45.43988 45.677383 46.245476 45.569885 45.563206
45.28869 45.481842 46.02314 45.267326 45.18331 45.317036 46.356937 45.76117
45.967293 45.142467 45.84853 45.343452 45.879463 46.18741 45.7515 46.13566
45.75339 46.244576 46.637222 45.98002 46.253742 45.46369 45.939423 45.36829
46.158607 45.469353 45.601585 46.03417 46.064827 45.747574 45.842503 45.6393
45.249874 45.5669 45.296097 45.84217 45.618023 45.722305 45.08561 45.460815
46.032795 46.339046 46.116623 46.4525 45.420994 45.49798 45.97471 46.036987
45.36542 45.844456 45.177162 46.14039 46.119827 45.38146 45.641426 45.74101
45.80708 45.71458 46.0444 45.33758 46.095867 45.442383 45.58066 45.724854
46.244648 45.041313 45.35839 45.626667 46.30284 46.781414 46.16319 45.595726
45.69567 46.96372 45.411674 45.38742 46.533108 45.813297 45.73823 46.497395
45.190125 46.017174 45.281696 45.83227 46.027744 46.18369 46.433807 46.287754
45.48329 45.631653 45.67768 45.27826 45.67592 45.61769 45.547092 46.015293
45.499832 45.845516 45.64886 44.958817 46.1744 46.377823 45.567024 46.134945
46.407032 45.278385 45.359554 46.41327 45.464157 45.27797 45.324467 46.34367
45.051563 45.250446 45.42198 45.354557 45.84026 45.805508 45.524815 45.62993
45.978264 46.288773 46.004547 45.11128 45.280216 45.70937 45.89774 46.137108
46.30602 45.535416 45.890774 45.952904 44.97858 45.422726 45.590878 45.08957
45.738064 45.752262 45.3458 45.641083 45.370182 45.954746 45.260998 45.463936
46.333435 45.5061 45.28434 45.740475 45.345505 45.534958 46.60433 45.396812
45.905807 45.386723 45.412697 45.31498 45.361942 45.66453 44.654583 45.36396
45.732796 46.16826 46.146877 45.625404 45.726357 45.996494 46.49283 45.800385
45.070896 45.297756 45.358006 45.88308 45.465275 46.114803 45.99157 46.51656
44.8945 45.898495 46.307083 45.294666 46.133755 45.114223 45.22477 45.3041
45.840015 45.688553 45.860752 45.472656 45.593956 46.061825 45.411545 45.21944
45.736687 45.51859 45.664185 45.748043 45.51832 45.287815 46.146225 45.39589
45.371555 45.462124 45.614506 46.06939 45.84918 46.300823 45.51259 45.820896
00000000: 861b 3542 1fe9 3542 6651 3742 64e6 3742
00000010: 627c 3742 ae9c 3642 8499 3542 3dcb 3542
00000020: c2ea 3642 e126 3942 5961 3742 9b9f 3742
00000030: bfaf 3442 4e91 3742 fcf1 3642 dcb7 3742
00000040: e9e2 3642 4959 3842 4788 3542 4fb5 3542
00000050: 302a 3742 bf5e 3442 4071 3342 103f 3742
00000060: e2a8 3642 6852 3842 7997 3842 1aac 3542
00000070: 567c 3842 c3a7 3542 6385 3642 6b66 3542
00000080: c51d 3942 62fc 3742 10e4 3642 66e2 3642
00000090: cd13 3642 e742 3542 8b39 3642 464b 3842
000000a0: d2f2 3742 7789 3742 7ffd 3642 70c2 3542
000000b0: a4b5 3642 5efb 3842 9047 3642 b940 3642
000000c0: 9e27 3542 68ed 3542 b217 3842 be11 3542
000000d0: b6bb 3442 a544 3542 816d 3942 700b 3742
000000e0: 82de 3742 e391 3442 e564 3742 b25f 3542
000000f0: 9284 3742 e8bf 3842 8901 3742 ea8a 3842
00000100: 7903 3742 72fa 3842 848c 3a42 8aeb 3742
00000110: d503 3942 d2da 3542 f8c1 3742 2179 3542
00000120: 6aa2 3842 9ee0 3542 0668 3642 fd22 3842
00000130: 6242 3842 84fd 3642 b95e 3742 a58e 3642
00000140: dfff 3442 8144 3642 342f 3542 625e 3742
00000150: db78 3642 a4e3 3642 aa57 3442 e0d7 3542
00000160: 9521 3842 2f5b 3942 6c77 3842 5ccf 3942
00000170: 19af 3542 eefd 3542 1ae6 3742 e025 3842
00000180: 3176 3542 b960 3742 6ab5 3442 c28f 3842
00000190: b47a 3842 9d86 3542 d290 3642 cbf6 3642
000001a0: 733a 3742 bbdb 3642 772d 3842 af59 3542
000001b0: 2b62 3842 00c5 3542 9952 3642 40e6 3642
000001c0: 85fa 3842 4e2a 3442 fe6e 3542 b581 3642
000001d0: 1c36 3942 2b20 3b42 1ba7 3842 0662 3642
000001e0: 5ec8 3642 d9da 3b42 8ea5 3542 b88c 3542
000001f0: e721 3a42 d140 3742 f3f3 3642 55fd 3942
00000200: b0c2 3442 9611 3842 7520 3542 3f54 3742
00000210: 691c 3842 19bc 3842 38bc 3942 a926 3942
00000220: e4ee 3542 d086 3642 f2b5 3642 f01c 3542
00000230: 24b4 3642 8478 3642 3930 3642 a90f 3842
00000240: d4ff 3542 cf61 3742 6f98 3642 d4d5 3342
00000250: 96b2 3842 e482 3942 a244 3642 2f8a 3842
00000260: cda0 3942 111d 3542 2f70 3542 30a7 3942
00000270: 4cdb 3542 a41c 3542 414c 3542 eb5f 3942
00000280: cd34 3442 7500 3542 1cb0 3542 116b 3542
00000290: 6d5c 3742 d738 3742 6919 3642 0c85 3642
000002a0: bee9 3742 b427 3942 a804 3842 f371 3442
000002b0: f11e 3542 65d6 3642 4997 3742 668c 3842
000002c0: 5d39 3942 4424 3642 2790 3742 c6cf 3742
000002d0: 11ea 3342 dfb0 3542 0f5d 3642 b85b 3442
000002e0: c7f3 3642 5102 3742 1962 3542 7890 3642
000002f0: 117b 3542 a9d1 3742 430b 3542 12db 3542
00000300: 7055 3942 3f06 3642 2a23 3542 3ff6 3642
00000310: cc61 3542 cc23 3642 d56a 3a42 5696 3542
00000320: 8c9f 3742 018c 3542 9aa6 3542 8a42 3542
00000330: a172 3542 7ba8 3642 4b9e 3242 b274 3542
00000340: 62ee 3642 4cac 3842 6796 3842 6a80 3642
00000350: cae7 3642 69fc 3742 a8f8 3942 9833 3742
00000360: 9948 3442 e730 3542 996e 3542 4688 3742
00000370: 71dc 3542 8f75 3842 5ef7 3742 f510 3a42
00000380: f893 3342 0f98 3742 743a 3942 bd2d 3542
00000390: f788 3842 f774 3442 2ae6 3442 6637 3542
000003a0: 2d5c 3742 14c1 3642 6971 3742 00e4 3542
000003b0: 3660 3642 4f3f 3842 6ca5 3542 b5e0 3442
000003c0: 5ef2 3642 0913 3642 20a8 3642 fffd 3642
000003d0: c212 3642 b926 3542 bc95 3842 6495 3542
000003e0: 797c 3542 37d9 3542 4175 3642 0e47 3842
000003f0: 8f65 3742 0b34 3942 e40c 3642 9948 3742

net.2.weight f4 [256, 256]
-0.0663512 0.04566273 -0.056810945 -0.05487085 -0.053808335 0.008116031 -0.00010758334 0.053738285
0.0022589944 0.032777704 0.02775643 -0.009430823 -0.017941307 0.022537863 -0.028756347 0.025586661
-0.025501112 -0.033862673 0.014934048 -0.060000498 0.019146577 -0.07148309 -0.01574723 0.01765555
-0.017088603 -0.019331018 -0.052258715 -0.056517676 -0.012122759 0.045599077 -0.0017390097 -0.008473225
-0.028746543 0.00077050575 -0.04922364 -0.041133117 -0.025039688 0.02208451 0.028672097 -0.0024849148
-0.031311795 -0.06723039 -0.016757192 -0.0312701 0.030130016 0.044056937 -0.042697836 0.05129362
-0.0077514676 0.0052093677 -0.050067797 -0.04705961 -0.06842351 0.0562051 -0.06905163 -0.026919382
-0.01587131 -0.052589186 -0.072489135 0.05863253 -0.059408616 0.029949399 -0.076996334 0.040722888
-0.05143527 0.020451201 -0.04044857 -0.030192047 -0.004661061 0.0036941916 -0.07600888 -0.04612706
-0.07466848 -0.050049864 0.015612906 0.017994689 0.050779313 -0.057971373 -0.035797838 -0.03555351
-0.023746813 -0.014224776 0.051911473 -0.064639546 -0.037308116 -0.04572444 -0.019737942 -0.045883603
-0.04368623 -0.024383673 -0.052902274 -0.0612783 0.0015543071 0.012726306 -0.043279145 -0.018189441
0.02892383 0.03748756 -0.0069891377 -0.0372814 -0.009771186 -0.049833924 -0.054123916 -0.033719465
0.0028167511 -0.029969385 0.03555981 -0.04574036 -0.07395639 -0.0055502867 -0.047877155 0.0149711
-0.014014675 -0.009442709 0.0335132 0.013885919 0.018535644 -0.0039520157 -0.013842047 0.04537484
-0.0063171093 -0.039199814 0.0023316562 -0.011400395 -0.0030213841 0.036650382 -0.06312822 -0.052802198
0.053540178 -0.004911242 -0.065570965 0.004842894 -0.0047267177 -0.00024223022 0.023283014 0.013794675
-0.018291717 -0.03101999 -0.0634961 -0.0023519364 0.021426152 -0.069680564 0.0104982 0.024475364
-0.008226964 0.045026835 0.013308008 0.051898003 -0.051385935 -0.03371979 0.026441911 0.012737775
-0.06037577 0.021063155 0.0069673546 0.03107514 0.033868957 -0.04063562 0.0039265207 -0.022136254
0.0057712398 -0.06908357 0.018151894 -0.021177195 -0.02577789 0.021691859 -0.037865244 -0.072744854
0.026464837 0.03428278 0.035571143 -0.062603764 0.0468511 0.019846166 0.01349208 -0.06991744
-0.0024624905 -0.061419785 0.0070294444 0.027031595 0.010527805 -0.07102132 -0.046035804 -0.035902504
-0.072833516 -0.014803751 0.025864027 -0.014165589 0.041437194 -0.0009298539 0.048403457 0.023724644
0.03172946 0.0035988444 0.022560578 -0.038249847 0.010154235 -0.043905403 0.0055960235 -0.043588262
-0.04688286 -0.063609295 0.0076391823 -0.011781152 -0.06995896 0.036620595 0.04364751 -0.06235928
-0.050807443 0.043647632 0.03375475 -0.0509043 -0.05528617 -0.009434092 0.04221593 -0.033575475
-0.009983517 -0.06765909 -0.012215152 -0.0408532 0.02414663 0.028003315 0.00040150227 -0.03832107
-0.041858226 -0.0023548517 0.008420449 -0.053451892 -0.03791281 -0.054837964 -0.040541478 0.0438406
-0.07729517 -0.05092523 -0.03640026 0.03762531 -0.013568483 0.0052054506 -0.0038395391 0.016709987
-0.030142665 -0.0019382599 -0.05873499 -0.0065126554 0.02989159 -0.034382854 -0.027469411 0.034876592
0.003978184 0.026497545 0.017203808 -0.07766816 -0.03837147 0.0371013 -0.039678518 -0.053542014
00000000: 23e3 87bd d808 3b3d 98b2 68bd 42c0 60bd
00000010: 2166 5cbd 1af9 043c 5e9e e1b8 ad1c 5c3d
00000020: a30b 143b ea41 063d 7461 e33c bd83 1abc
00000030: a6f9 92bc 53a1 b83c 6e92 ebbc 1e9b d13c
00000040: b5e7 d0bc 96b3 0abd f0ad 743c 15c3 75bd
00000050: 48d9 9c3c ba65 92bd 5600 81bc 5fa2 903c
00000060: 66fd 8bbc 155c 9ebc 3c0d 56bd 147f 67bd
00000070: 899e 46bc 19c6 3a3d 7cef e3ba 48d3 0abc
00000080: df7d ebbc c4fb 493a ba9e 49bd 337b 28bd
00000090: 0820 cdbc 93ea b43c bfe1 ea3c f4d9 22bb
000000a0: cc40 00bd 16b0 89bd 6146 89bc 1415 00bd
000000b0: 39d3 f63c 0c75 343d ede3 2ebd 4219 523d
000000c0: 0600 febb 58b3 aa3b e413 4dbd 94c1 40bd
000000d0: a021 8cbd 5237 663d f16a 8dbd 0986 dcbc
000000e0: 8d04 82bc c267 57bd 2f75 94bd aa28 703d
000000f0: 7356 73bd 7158 f53c 41b0 9dbd 0bcd 263d
00000100: caad 52bd 4789 a73c 66ad 25bd 5055 f7bc
00000110: d0bb 98bb 401a 723b 8baa 9bbd baef 3cbd
00000120: caeb 98bd 1601 4dbd 46cd 7f3c 9969 933c
00000130: f8fd 4f3d 6473 6dbd c1a0 12bd 8fa0 11bd
00000140: ad88 c2bc 090f 69bc 20a1 543d bd61 84bd
00000150: 65d0 18bd 8d49 3bbd 77b1 a1bc 72f0 3bbd
00000160: 55f0 32bd 45c0 c7bc 0eb0 58bd f4fe 7abd
00000170: e4b9 cb3a ff81 503c 7945 31bd 0602 95bc
00000180: abf1 ec3c 8e8c 193d 2305 e5bb 62b4 18bd
00000190: 5317 20bc a81e 4cbd 0ab1 5dbd 6c1d 0abd
000001a0: 3e99 383b 5b82 f5bc 2aa7 113d 3e5a 3bbd
000001b0: 7376 97bd 2edf b5bb d61a 44bd 5849 753c
000001c0: cf9d 65bc 98b5 1abc 2345 093d c481 633c
000001d0: 10d8 973c e97f 81bb c1c9 62bc f8da 393d
000001e0: c1ff cebb fc8f 20bd b3ce 183b b9c8 3abc
000001f0: 6a02 46bb b61e 163d 5e49 81bd 1e47 58bd
00000200: f24c 5b3d 7cee a0bb 124a 86bd 24b1 9e3b
00000210: 95e2 9abb 2eff 7db9 05bc be3c 0f03 623c
00000220: 83d8 95bc a21d febc 3e0a 82bd f222 1abb
00000230: e685 af3c afb4 8ebd a400 2c3c 8f80 c83c
00000240: 63ca 06bc 0f6e 383d d509 5a3c 0093 543d
00000250: 0f7a 52bd c31d 0abd b59c d83c 1ab2 503c
00000260: 954c 77bd a38c ac3c 684e e43b 4b91 fe3c
00000270: 2dba 0a3d 8971 26bd 0baa 803b 1757 b5bc
00000280: ab1c bd3b b07b 8dbd 48b3 943c cc7b adbc
00000290: 272c d3bc 20b3 b13c 9618 1bbd 41fb 94bd
000002a0: c9cc d83c 1a6c 0c3d 0cb3 113d 6736 80bd
000002b0: f0e6 3f3d 6d94 a23c e30d 5d3c e030 8fbd
000002c0: bc61 21bb 5093 7bbd 4157 e63b 5d71 dd3c
000002d0: d17c 2c3c a073 91bd 0a90 3cbd 810e 13bd
000002e0: bd29 95bd 6f8b 72bc cce0 d33c c916 68bc
000002f0: 0cba 293d 70c1 73ba b442 463d 2f5a c23c
00000300: c0f6 013d 97da 6b3b f6d0 b83c dfab 1cbd
00000310: f35d 263c 27d6 33bd d95e b73b 9b89 32bd
00000320: 3e08 40bd 9745 82bd 1b52 fa3b bc05 41bc
00000330: a546 8fbd 7aff 153d bbc7 323d 726c 7fbd
00000340: 771b 50bd dcc7 323d 6c42 0a3d 0781 50bd
00000350: c073 62bd 7391 1abc 9cea 2c3d 7086 09bd
00000360: e891 23bc d990 8abd 1022 48bc af55 27bd
00000370: 27cf c53c 3567 e53c b980 d239 8ef6 1cbd
00000380: 8873 2bbd db53 1abb ecf5 093c 5ff0 5abd
00000390: 764a 1bbd c69d 60bd d20e 26bd 3392 333d
000003a0: ee4c 9ebd f996 50bd 7018 15bd ff1c 1a3d
000003b0: 584e 5ebc 7c92 aa3b c7a0 7bbb 62e3 883c
000003c0: c0ed f6bc 360d feba 1a94 70bd 1d68 d5bb
000003d0: 35df f43c 09d5 0cbd 8807 e1bc c2da 0e3d
000003e0: 6d5b 823b 6111 d93c 00ef 8c3c 7c10 9fbd
000003f0: 672b 1dbd 88f7 173d f185 22bd df4e 5bbd

net.2.bias f4 [256]
-0.036818504 -0.02081658 -0.08158598 -0.04319815 0.003507865 -0.064765155 0.13405932 -0.06868288
-0.06966178 -0.22652958 0.030703083 -0.03871724 -0.056414377 0.02145277 0.04230925 0.023976713
0.016737172 43.755005 -0.04127615 -0.042889126 -0.058732633 -0.10150472 -0.07348049 -0.062094875
-0.056085113 -0.051301405 -0.07686465 -0.08848523 0.004936882 -0.04578216 44.03391 -0.053747755
-0.104464665 44.100296 -0.09029542 -0.007378289 43.91252 43.618458 -0.00992681 -0.017156575
44.10233 -0.03727697 -0.077348195 -0.018355811 43.68372 0.06745018 43.707306 -0.0022931867
-0.07993757 -0.12367925 0.004716182 -0.1507163 0.026707029 43.6465 40.2868 -0.012425419
-0.03652144 0.038976166 -0.100136325 -0.012650388 0.052627098 0.016620707 43.667976 -0.055148713
43.61654 43.88219 -0.059722878 -0.008234094 44.175507 -0.054141115 44.11712 0.0023634983
-0.030592991 44.0928 -0.168295 -0.05936133 -0.069056064 44.07978 44.14828 -0.016945442
-0.004721875 43.54811 0.024852635 -0.058890354 43.67358 43.61185 43.67239 43.596287
0.0063582035 -0.031364366 -0.01622259 43.99481 -0.002873977 -0.13107751 44.249027 44.296265
44.36584 43.632156 0.07671174 43.64496 -0.10115485 -0.17055796 -0.095615715 44.08283
0.0015739908 0.036932703 -0.08795167 43.73589 -0.0031900948 44.160164 43.98746 44.240654
0.037332527 -0.031231798 43.643208 0.029437745 -0.07753452 0.040676005 -0.038252793 0.12783115
-0.13897988 -0.08678361 0.033946477 -0.03780777 43.465084 0.014468511 -0.036308255 0.02367134
0.005393589 43.808746 -0.019514276 -0.072687104 43.68261 43.959076 43.767582 -0.01107673
-0.1163261 -0.0748208 -0.05961761 -0.09089287 44.02185 -0.028866261 -0.13034232 -0.0010434045
-0.049618598 -0.0036790748 44.172314 -0.031254996 -0.0034801906 -0.023619786 43.663776 -0.030828245
-0.0693423 44.128624 43.967262 -0.12283889 0.054209147 -0.09810885 -0.080757655 42.83211
-0.038351227 43.80998 -0.04632857 0.17039593 43.302074 -0.026189968 -0.026851447 -0.07792627
44.05008 -0.10293415 -0.07162695 -0.048837528 -0.15691747 44.03388 0.019105066 43.682327
0.02937567 -0.068070136 -0.003394723 0.016771775 0.00580979 -0.09794897 -0.06953398 -0.030137125
-0.036303036 42.717033 -0.024572734 43.744514 0.018731447 -0.07660834 -0.041128397 44.05412
43.593033 43.767017 -0.0073554614 43.585957 -0.09766243 -0.01730145 0.044644535 -0.015684286
-0.126009 -0.04479069 -0.027712079 -0.029257026 44.18231 -0.012388865 44.185936 44.184925
43.778526 44.38214 -0.06722588 -0.042554792 43.945152 -0.07373639 -0.016034719 44.108143
0.03958903 43.946457 44.34937 -0.043239325 -0.008878623 -0.026395326 -0.09649898 0.016012168
-0.07608683 0.0301188 -0.008468008 -0.02190883 43.544296 -0.073572814 -0.024352808 -0.12164994
44.14313 44.078423 -0.041435637 -0.021239849 43.989876 0.13340434 44.13709 -0.06473536
0.04134851 -0.06360073 -0.038994282 0.049989335 44.238132 -0.040326733 43.778522 44.12374
-0.07051613 -0.0016627671 -0.008903556 44.07087 -0.036294717 0.02706821 44.104473 43.650726
00000000: 00cf 16bd 8887 aabc 8d16 a7bd 8bf0 30bd
00000010: 35e4 653b 98a3 84bd d946 093e 9ca9 8cbd
00000020: d6aa 8ebd 5ff7 67be 0885 fb3c f895 1ebd
00000030: c312 67bd b8bd af3c 774c 2d3d d06a c43c
00000040: 651c 893c 2005 2f42 2e11 29bd 82ac 2fbd
00000050: a191 70bd b5e1 cfbd f07c 96bd 3257 7ebd
00000060: 81b9 65bd 6c21 52bd 376b 9dbd bf37 b5bd
00000070: 91c5 a13b 1386 3bbd b922 3042 9b26 5cbd
00000080: 92f1 d5bd b466 3042 ceec b8bd 93c5 f1bb
00000090: 6ca6 2f42 4d79 2e42 0fa4 22bc f28b 8cbc
000000a0: c968 3042 bcaf 18bd bb68 9ebd ed5e 96bc
000000b0: 21bc 2e42 5223 8a3d 48d4 2e42 4a49 16bb
000000c0: 4fb6 a3bd 8c4b fdbd 348a 9a3b 6055 1abe
000000d0: b3c8 da3c 0496 2e42 af25 2142 fc93 4bbc
000000e0: 8197 15bd 79a5 1f3d 4614 cdbd 9343 4fbc
000000f0: 838f 573d 2628 883c 02ac 2e42 9ee3 61bd
00000100: 5677 2e42 5d87 2f42 fa9f 74bd 4be8 06bc
00000110: b8b3 3042 13c3 5dbd ee77 3042 ece4 1a3b
00000120: 279e fabc 075f 3042 8655 2cbe de24 73bd
00000130: 446d 8dbd b251 3042 d797 3042 2bd1 8abc
00000140: f5b9 9abb 4431 2e42 c197 cb3c 0337 71bd
00000150: bfb1 2e42 8972 2e42 87b0 2e42 9962 2e42
00000160: 7a58 d03b ec77 00bd 3de5 84bc affa 2f42
00000170: 5559 3cbb 2f39 06be 01ff 3042 602f 3142
00000180: 9f76 3142 5487 2e42 0b1b 9d3d 7094 2e42
00000190: 462a cfbd bfa6 2ebe 2cd2 c3bd d154 3042
000001a0: 5e4e ce3a bf46 173d 0120 b4bd 8df1 2e42
000001b0: e910 51bb 02a4 3042 29f3 2f42 6ef6 3042
000001c0: fee9 183d d4d9 ffbc a592 2e42 6d27 f13c
000001d0: 6bca 9ebd e29b 263d f6ae 1cbd 2be6 023e
000001e0: be50 0ebe 9bbb b1bd 760b 0b3d 52dc 1abd
000001f0: 3fdc 2d42 550d 6d3c f7b7 14bd 66ea c13c
00000200: b4bc b03b 283c 2f42 67dc 9fbc fadc 94bd
00000210: feba 2e42 18d6 2f42 0112 2f42 2c7b 35bc
00000220: 613c eebd a63b 99bd 9831 74bd 0b26 babd
00000230: 6016 3042 f078 ecbc 7578 05be d8c2 88ba
00000240: df3c 4bbd a21c 71bb 73b0 3042 3d05 00bd
00000250: e913 64bb 487e c1bc b5a7 2e42 848b fcbc
00000260: 5603 8ebd b683 3042 7ade 2f42 f592 fbbd
00000270: 690a 5e3d 4bed c8bd 4564 a5bd 1554 2b42
00000280: 2d16 1dbd 6b3d 2f42 07c3 3dbd 457c 2e3e
00000290: 5335 2d42 588c d6bc 91f7 dbbc cf97 9fbd
000002a0: 4833 3042 24cf d2bd 26b1 92bd dc09 48bd
000002b0: f9ae 20be b122 3042 3a82 9c3c b4ba 2e42
000002c0: 3fa5 f03c 5b68 8bbd 007a 5ebb f664 893c
000002d0: 0d60 be3b 7899 c8bd d567 8ebd 22e2 f6bc
000002e0: 7eb2 14bd 3ede 2a42 c24c c9bc 62fa 2e42
000002f0: b172 993c d5e4 9cbd 4076 28bd 6b37 3042
00000300: 445f 2e42 6d11 2f42 1506 f1bb 0558 2e42
00000310: 3d03 c8bd c5bb 8dbc 30dd 363d 557c 80bc
00000320: 8108 01be 7176 37bd 7104 e3bc 6eac efbc
00000330: afba 3042 abfa 4abc 66be 3042 5dbd 3042
00000340: 361d 2f42 5087 3142 b9ad 89bd ef4d 2ebd
00000350: d6c7 2f42 1b03 97bd 3e5b 83bc bd6e 3042
00000360: 1b28 223d 2cc9 2f42 c165 3142 b81b 31bd
00000370: a577 11bc 033b d8bc 42a1 c5bd f32b 833c
00000380: 69d3 9bbd b4bb f63c 66bd 0abc 267a b3bc
00000390: 5c2d 2e42 58ad 96bd 8a7f c7bc 9b23 f9bd
000003a0: 9192 3042 4e50 3042 6ab8 29bd 31ff adbc
000003b0: a2f5 2f42 269b 083e 618c 3042 f993 84bd
000003c0: 0e5d 293d 1941 82bd 78b8 1fbd 9ec1 4c3d
000003d0: d9f3 3042 a52d 25bd 351d 2f42 b67e 3042
000003e0: c36a 90bd 35f1 d9ba 38e0 11bc 9248 3042
000003f0: c5a9 14bd 27be dd3c fb6a 3042 589a 2e42

net.4.weight f4 [2, 256]
0.06652784 -0.016051605 -0.056664918 0.04382598 0.023151843 -0.0031360162 -0.4034546 -0.029141659
-0.20659806 -0.47315878 -0.053080898 0.017383562 -0.21401177 0.037837245 0.0023564596 0.0002318107
-0.030475339 -43.90974 -0.4534098 -0.46850562 0.09495247 0.0029086801 -0.25693062 0.05850485
-0.22290538 -0.02046426 -0.1372822 0.017665736 0.052796043 -0.11140061 -43.353596 0.018881135
0.0012501674 -43.370552 -0.07281231 -0.01595365 -43.326683 -43.8048 -0.059976257 0.0042227055
-43.409153 -0.46506807 0.046274908 0.025057947 -43.334076 0.07925508 -44.02844 -0.18041076
-0.14885922 -0.14197366 0.021683821 -0.32165334 0.04094856 -43.431534 -42.665993 0.004969329
-0.010726951 0.012335188 -0.67665017 -0.028198682 -0.06992 -0.036330413 -43.81554 -0.023602284
-43.588192 -43.297783 0.028141322 -0.01783498 -42.858936 -0.52656376 -43.158184 0.014854408
-0.047116004 -43.22296 -0.40250343 0.004283833 -0.0058429083 -42.79271 -43.052906 -0.05211389
0.0047728047 -43.54569 0.024761267 0.007342211 -43.97332 -43.475956 -43.373013 -43.950974
-0.07845115 0.008212101 -0.016591368 -43.558372 -0.056355488 -0.13390668 -43.30325 -42.65407
-43.1153 -43.631264 -0.1719193 -43.55623 -0.0029291874 -0.30733743 -0.2096925 -43.236366
-0.04482576 -0.28951558 -0.07740802 -43.460377 -0.051560953 -42.993847 -43.30321 -43.169624
-0.4364378 -0.061934143 -43.651623 -0.2960668 -0.019014407 0.049719874 -0.02872651 -0.24587533
-0.43577313 0.021463897 -0.035953537 -0.1025965 -43.952442 -0.006880406 -0.17505696 -0.026289836
-0.037509575 -43.413403 0.03780902 0.017762674 -44.058846 -43.164776 -43.41116 0.0044148597
-0.111681074 -0.16254458 -0.027008686 0.034827493 -43.134796 0.03318994 -0.32322565 -0.006233701
-0.059125964 -0.03386218 -43.34333 -0.0066169496 -0.29425353 -0.33697262 -43.639835 -0.0041312757
0.04812483 -43.192913 -43.15805 0.01706579 -0.1556085 -0.07129205 -0.027014757 -44.68035
0.0003950389 -43.63399 -0.30478138 -0.10992688 -43.993156 0.04753003 0.033208463 0.094295844
-43.335323 -0.024958143 -0.025993738 0.00078076706 -0.208667 -43.268936 -0.04462558 -43.24318
0.025574345 -0.05859509 0.046878744 -0.002764834 0.019694561 -0.015760094 0.10251171 -0.24309367
-0.28213727 -44.559963 -0.026982713 -42.837597 -0.25789168 0.009771715 -0.3874224 -43.316647
-43.71921 -43.53039 0.04043361 -43.686226 0.0862697 -0.040601462 0.023270994 0.014545141
-0.23763159 -0.26010978 0.0487152 0.016196745 -43.235733 0.021592304 -42.661034 -43.05294
-43.525494 -42.899345 0.016825708 -0.020639874 -43.40091 -0.028981214 -0.29057592 -43.120663
0.043688044 -43.37983 -42.99246 -0.23580891 -0.24720515 0.010509556 -0.3736306 -0.23307276
-0.027547175 0.024560349 0.023012038 -0.03715536 -43.54684 -0.5904814 -0.06311152 -0.39826018
-43.360508 -43.324 -0.46954846 0.022842973 -43.18678 -0.3845846 -43.330173 0.01586183
-0.37441283 0.03219297 -0.10666488 -0.041680854 -42.897156 -0.018747734 -43.61935 -42.903255
-0.033958286 -0.21465448 0.04821599 -42.976818 -0.0019232932 -0.0035628718 -43.227497 -43.571625
00000000: c03f 883d a87e 83bc 7919 68bd df82 333d
00000010: efa8 bd3c 9f85 4dbb 9a91 cebe 7dba eebc
00000020: 718e 53be de41 f2be 5b6b 59bd f967 8e3c
00000030: e725 5bbe 3afb 1a3d d56e 1a3b 3612 7339
00000040: 6ba7 f9bc 93a3 2fc2 5425 e8be f8df efbe
00000050: 7176 c23d 8e9f 3e3b 698c 83be c8a2 6f3d
00000060: 4f41 64be aaa4 a7bc b493 0cbe bcb7 903c
00000070: aa40 583d 0126 e4bd 156a 2dc2 9cac 9a3c
00000080: a8dc a33a 727b 2dc2 9f1e 95bd 3bb1 82bc
00000090: 864e 2dc2 1d38 2fc2 aaa9 75bd 9f5e 8a3b
000000a0: f9a2 2dc2 671d eebe c28a 3d3d 5346 cd3c
000000b0: 1856 2dc2 7d50 a23d 1f1d 30c2 99bd 38be
000000c0: 8d6e 18be 8b61 11be 45a2 b13c bfaf a4be
000000d0: adb9 273d e4b9 2dc2 faa9 2ac2 c1d5 a23b
000000e0: 18c0 2fbc 8719 4a3c f238 2dbf ec00 e7bc
000000f0: 3832 8fbd 33cf 14bd 1d43 2fc2 9459 c1bc
00000100: 4f5a 2ec2 ee30 2dc2 a188 e63c aa1a 92bc
00000110: 8d6f 2bc2 e2cc 06bf fba1 2cc2 e75f 733c
00000120: b6fc 40bd 50e4 2cc2 ee14 cebe 655f 8c3b
00000130: de75 bfbb bc2b 2bc2 2d36 2cc2 6075 55bd
00000140: 3065 9c3b c92e 2ec2 24d8 ca3c ee96 f03b
00000150: aee4 2fc2 61e7 2dc2 f77d 2dc2 cccd 2fc2
00000160: ffaa a0bd 0c8c 063c 9fea 87bc c63b 2ec2
00000170: 03d5 66bd d51e 09be 8736 2dc2 c59d 2ac2
00000180: 1176 2cc2 6a86 2ec2 9d0b 30be 9439 2ec2
00000190: 9cf7 3fbb 555b 9dbe a1b9 56be 0af2 2cc2
000001a0: 379b 37bd 633b 94be 1988 9ebd 6dd7 2dc2
000001b0: 9431 53bd b3f9 2bc2 7d36 2dc2 b2ad 2cc2
000001c0: c674 dfbe a8ae 7dbd 439b 2ec2 1196 97be
000001d0: 1ac4 9bbc 11a7 4b3d dc53 ebbc bec6 7bbe
000001e0: a81d dfbe 0ed5 af3c 0444 13bd 1d1e d2bd
000001f0: 4dcf 2fc2 0775 e1bb 2242 33be c85d d7bc
00000200: a4a3 19bd 53a7 2dc2 a2dd 1a3d 0783 913c
00000210: 423c 30c2 bba8 2cc2 07a5 2dc2 87aa 903b
00000220: 0cb9 e4bd 1672 26be 5241 ddbc 46a7 0e3d
00000230: 088a 2cc2 2df2 073d d57d a5be 1344 ccbb
00000240: 112e 72bd 12b3 0abd 925f 2dc2 ffd2 d8bb
00000250: 66a8 96be ad87 acbe 318f 2ec2 a75f 87bb
00000260: 8b1e 453d 8bc5 2cc2 d8a1 2cc2 8ecd 8b3c
00000270: d657 1fbe 9101 92bd 0d4e ddbc aeb8 32c2
00000280: 391d cf39 3589 2ec2 4e0c 9cbe 5821 e1bd
00000290: fef8 2fc2 d9ae 423d 9905 083d 2e1e c13d
000002a0: 5f57 2dc2 0575 ccbc d2f0 d4bc 64ac 4c3a
000002b0: cdac 55be 6413 2dc2 50c9 36bd 04f9 2cc2
000002c0: 4a81 d13c 6801 70bd ed03 403d 3832 35bb
000002d0: 7d56 a13c 501b 81bc a9f1 d13d 8ced 78be
000002e0: 4c74 90be 673d 32c2 da0a ddbc b359 2bc2
000002f0: 610a 84be 8b19 203c 3b5c c6be 3f44 2dc2
00000300: 79e0 2ec2 1f1f 2ec2 b79d 253d b2be 2ec2
00000310: 2bae b03d b84d 26bd d0a2 be3c be4e 6e3c
00000320: b255 73be 1c2d 85be 9789 473d 09af 843c
00000330: 64f1 2cc2 58e2 b03c e6a4 2ac2 3636 2cc2
00000340: 1b1a 2ec2 ee98 2bc2 11d6 893c f414 a9bc
00000350: 889a 2dc2 036a edbc 5ec6 94be 8f7b 2cc2
00000360: 3cf2 323d f284 2dc2 47f8 2bc2 e477 71be
00000370: 5923 7dbe 4630 2c3c 834c bfbe a0aa 6ebe
00000380: 9daa e1bc c932 c93c be83 bc3c 3830 18bd
00000390: f72f 2ec2 ca29 17bf 9d40 81bd c2e8 cbbe
000003a0: 2971 2dc2 c74b 2dc2 a868 f0be 3021 bb3c
000003b0: 43bf 2cc2 46e8 c4be 1952 2dc2 abf0 813c
000003c0: 0ab3 bfbe c7dc 033d 1e73 dabd 8bb9 2abd
000003d0: b096 2bc2 d994 99bc 377a 2ec2 ef9c 2bc2
000003e0: d817 0bbd 62ce 5bbe 217e 453d 43e8 2bc2
000003f0: 0317 fcba 127f 69bb f5e8 2cc2 5849 2ec2

net.4.bias f4 [2]
-39.735004 -41.530136
00000000: a5f0 1ec2 dc1e 26c2
